models/TinyVGG.pt (torch, 333319 bytes, 10 tensors)

conv_block_1.0.weight f4 [10, 3, 3, 3]
00000000: 9e9f 143e 0b85 213e 30c8 40bd 87fb 323e
00000010: 3de2 34bd b9f7 163d f6f4 c3bd 5760 e33d
00000020: 15b2 2b3e 6d8a 12be 0f45 293e a367 0b3d
00000030: 4c95 0f3e 4c1e c53c d5f3 b93d 227b eebc
00000040: 82de 153e d5a6 d83c d912 bcbd 66ae 413d
00000050: 6749 b9bd 1fd4 c8bc acd6 a3bd 84d0 003e
00000060: 269a 1dbe c578 b9bd 5b35 66bd d787 eebd
00000070: d389 8e3c bd5b 43be a000 313e 856b 28be
00000080: 80b1 173e 2d9c 013d 5e32 81bd b4ef f23d
00000090: 4a12 f13c 23bc 1e3e 9a8c a83c ce92 7bbd
000000a0: 5783 513d 20ce 4dbd 21a3 a93d 20c4 313e
000000b0: ebdf e73d 0ab5 adbd c823 e73d b65d 143d
000000c0: d400 c63d e073 edbd 784e 41be 0933 94bd
000000d0: 1644 15be 3e93 233e 9e41 613d a468 a23d
000000e0: a68f 773d ab17 78bb 47c5 193e 5b7e 0cbe
000000f0: f906 3f3c feed 06be 4b55 713d f8af 88bd
00000100: 56a3 6f3d c91f 26bd 07fc 223e cd98 eabd
00000110: ee20 ecbd 520a ecbd f4cf 303e d066 823d
00000120: f349 3d3e 4803 23be fcda 43be a281 1abe
00000130: f1f3 04be 8dc1 9e3d 7867 8c3d 076f 233e
00000140: 224d ccbd de8a 04be 3dd7 d43d 18af 9bbd
00000150: 7384 ee3d f2e3 33bd 77a2 e03d 3778 19be
00000160: bc9e c7bd 30fc 6d3d ddd8 2d3d 26d7 41bd
00000170: af59 ea3d 9aa9 053e d033 0fbe ed2c d3bd
00000180: 0521 343e fe9c 85bd d894 8cbd 01da 3cbe
00000190: 4030 debd 2814 433d e3b4 d2bc 3a6d 0fbe
000001a0: 49b3 733b b604 07be 4c9b 27be 6ef1 dabd
000001b0: a485 2abe f327 f7bd b0f8 463e c635 1c3d
000001c0: 4dc8 713d 83dd 35be 1e16 ffbd 04bb 83bd
000001d0: 51b2 023d 0a9d 2bbe 9c9e a6bd 5986 e8bd
000001e0: 53f6 c33a 56c0 91bd 3ec7 44bc 4f96 04be
000001f0: 01d4 06be af3c e4bd 556d 83bd c503 1abe
00000200: baf1 263e 6cae 18bd e5ad 273e eea2 7a3d
00000210: 73cb 25be dcce 083e a7ce 55bd 287b 96bd
00000220: a888 22be 91a2 42be 8abf 653d 8b5b 28bd
00000230: 0e97 9a3d 0b1c 21be f533 133e 7caf 0fbe
00000240: 844e 10bd 58ea 1c3d 4360 c73d 521c 1d3e
00000250: ed86 313e 1048 1ebe e72f 3e3d 387e adbd
00000260: 72fb bcbc 8c88 15be 2c92 313e acaf 12be
00000270: 855b d33d 7c77 863d 3630 783d beee d8bd
00000280: 7625 313e 004e 253d 5f79 d83c 38f6 2bbe
00000290: 4ade a83d c9d1 debc d225 b1bd 16fa 2a3e
000002a0: 5993 363d 2ba5 d6bd 1619 c4bd 7715 f6bb
000002b0: 7b80 df3d 9d9a 42bd 4174 ddbd 0786 83bd
000002c0: b784 11be e4f9 8f3d 4940 1a3e c7d4 37be
000002d0: 1500 3e3d 360f cf3d 98c5 153d 13e9 88bd
000002e0: 1731 d13d 128a d23d ddcd 963d 6aa6 03bd
000002f0: 94f5 49bd 23d9 aa3c 830f 0abd d0a3 69bd
00000300: 1752 f83d eea6 293e 5e8d 99bc 9398 37bd
00000310: 6fe7 493b f7c5 36bc 95fb 3e3d f86c 5e3d
00000320: 9896 32be 1ae0 90bd 855a 263e f268 9a3d
00000330: 3299 17bc b7e6 ecbd 9025 f0bd aa84 32be
00000340: c578 84bd c831 813d 7b3b f73d 1ce7 b13d
00000350: e815 30be 080d f1bd f66c 04bd 5ccb 3c3e
00000360: 67ea de3c f559 44bd 8326 a73d f91d 98bd
00000370: 4621 fbbd 41d5 113e d1f6 b3bd ca28 16bd
00000380: 3901 42be b885 033e e140 173e c999 933d
00000390: 2c1f 0abe d779 40be 5e1b 1ebe 11a2 123e
000003a0: 9445 c13d ebde 273e ac8a cd3d 6373 4f3d
000003b0: 6017 4d38 7314 17be 3bef 26be 7276 36be
000003c0: defa 9f3d a89d bdbd 6b97 17bd 10d4 e2bd
000003d0: 74a4 0fbd 37b4 0abe 96c4 00be 62bd 823d
000003e0: cc45 6abd 7a51 f33d c0e2 7cbd 3390 10be
000003f0: 2015 0bbd a90e bfbd 902a 71bd d59b 3bbe
0.14514014 0.15773408 -0.047065914 0.17478763 -0.04416107 0.03685734 -0.09568207 0.1110236
0.16767152 -0.14310618 0.1653025 0.034034383 0.14021796 0.024062298 0.090797104 -0.029111449
0.14635661 0.02644674 -0.091832824 0.04728546 -0.090472035 -0.02451521 -0.0799993 0.12579542
-0.15390834 -0.09056238 -0.056203227 -0.11647003 0.017399704 -0.19077964 0.17285395 -0.16447265
0.14813805 0.03164308 -0.06308435 0.11862126 0.029427666 0.15501456 0.020574857 -0.0614193
0.051150646 -0.050245404 0.082830675 0.17359972 0.11322006 -0.08481796 0.112861216 0.036222182
0.09668127 -0.11594367 -0.1887759 -0.07236297 -0.14576754 0.15974137 0.054994218 0.07930115
0.06043973 -0.0037855904 0.15016662 -0.13720076 0.011659377 -0.13176724 0.058919232 -0.066741884
0.05850538 -0.040557656 0.15916453 -0.11454926 -0.11529718 -0.11525406 0.17266828 0.06367266
0.1848524 -0.1591922 -0.19126505 -0.15088513 -0.12983681 0.07751761 0.068556726 0.15960322
-0.099756494 -0.12943599 0.10392616 -0.07601756 0.116463564 -0.043918557 0.10968488 -0.14987265
-0.09747073 0.058101833 0.042443145 -0.047324322 0.11442887 0.13052979 -0.13984609 -0.10311303
0.17590721 -0.065240845 -0.06864327 -0.18442537 -0.10849047 0.047626644 -0.02572102 -0.1400651
0.003718572 -0.13185391 -0.16367835 -0.1069058 -0.16652542 -0.120681666 0.19430804 0.03813722
0.059028912 -0.17760281 -0.124553904 -0.06432155 0.031908337 -0.16759124 -0.08135721 -0.1135375
0.001495073 -0.07116763 -0.012010394 -0.12947963 -0.1316681 -0.11144387 -0.06417338 -0.150405
0.16303149 -0.037275717 0.16374929 0.061190538 -0.16190891 0.1336016 -0.052199032 -0.07347709
-0.15872443 -0.19007327 0.05609087 -0.041102927 0.07548343 -0.15733354 0.14375289 -0.14031786
-0.03523113 0.038309425 0.09735157 0.15342835 0.17336626 -0.15457177 0.046432402 -0.0847134
-0.023069117 -0.1460287 0.17340916 -0.14324826 0.1032019 0.065657586 0.060592853 -0.105924115
0.17299446 0.04035759 0.026425062 -0.16793144 0.08245523 -0.027199643 -0.08649792 0.16696963
0.044574115 -0.10480722 -0.09575097 -0.007509883 0.109131776 -0.047510732 -0.10813189 -0.06422048
-0.14210783 0.07030085 0.15063585 -0.17952262 0.046386797 0.10110323 0.036565393 -0.066850804
0.10214441 0.10280241 0.07363484 -0.032141127 -0.049306467 0.020855492 -0.0337062 -0.05704099
0.121250324 0.16567585 -0.018744167 -0.04482324 0.0030808111 -0.011155597 0.046626646 0.05430314
-0.1744026 -0.07073994 0.16245468 0.07539548 -0.009252833 -0.11567443 -0.117259145 -0.1743342
-0.064683475 0.06308323 0.12071892 0.08686659 -0.17195857 -0.11770064 -0.032330476 0.1843695
0.027211381 -0.047937352 0.081616424 -0.07427592 -0.12262206 0.14241506 -0.08787311 -0.036659993
-0.18945779 0.12843978 0.14770843 0.072070666 -0.13488454 -0.18796478 -0.15440127 0.14319636
0.09437099 0.1639363 0.10036215 0.05064715 4.889758e-05 -0.14753895 -0.16302197 -0.17818621
0.07811521 -0.09258586 -0.037009638 -0.11075604 -0.035068944 -0.13545309 -0.12574992 0.06383778
-0.05719547 0.11880775 -0.061739683 -0.14117508 -0.033955693 -0.09328968 -0.05887848 -0.18321164

conv_block_1.0.bias f4 [10]
00000000: 130e b93d 47ae 41be 5b9f f33d af1c 133e
00000010: ca57 3c3e 9722 42bd b432 20be bb24 333d
00000020: d3fa d53d f724 44be
0.090358876 -0.18914138 0.11895629 0.1436641 0.18392864 -0.04739627 -0.15644342 0.0437362
0.104482315 -0.19154726

conv_block_1.2.weight f4 [10, 10, 3, 3]
00000000: 0e0e cabc dfe1 82bd eb8e ecbb 405a 58bd
00000010: 8bcf 32bd 2201 01bd 8128 cfbd 6ebd af3d
00000020: d6f3 b83d 5c75 87bc 2b74 29bc b0fc 36bd
00000030: cae7 c4bd 877a d5bd 53a3 193d ef04 72bd
00000040: 8d01 8abd 501d 22bc e335 11bd efc6 10bd
00000050: cb98 093b eefe bebc ef5b 19bd 19b0 52bd
00000060: a902 b2bd 4878 b23d d6d2 30bd 70aa dc3c
00000070: 3941 19bd 72c7 fb3b 8c0f c73d 3223 423d
00000080: 1539 bcbd 189d 283d f010 cb3d 6605 dd3c
00000090: 8ba1 8f3d 92b8 d83d 77ea 87bc 9289 b03c
000000a0: 00f2 91bd 2360 a2bc 26f6 a33d 4a48 653d
000000b0: bbad 84bd 21b1 a9bd 2923 90bd 0ca1 d1bd
000000c0: d329 a3bd 608b d5bc 7f1b 953d 31ac 9d3c
000000d0: e5e3 a7bd 48f9 a9bd ac8b 503d f1f7 a0bd
000000e0: f0a4 54bc ba1d 4f3d 71d2 47bd 9050 3cbc
000000f0: f853 16bc fcd2 d9bc 12ea 5abd 966a c1bd
00000100: 2f10 b1bd 0dd0 6cbd 2257 ce3d 863f 53bd
00000110: e9be 92bd a753 ca3c ce0d eb3c 549c 6b3d
00000120: ea47 a33d bacf 773d 421b d2bd 3fba 0d3c
00000130: 0ea4 7f3d 17df febb a7cc 76bd 9138 cb3d
00000140: 0558 28bd 6fd1 75bd 45a0 c2bd 6049 9a3b
00000150: 5653 3f3d 4c26 bf3c 64c2 aa3c 23b8 a3bd
00000160: 1a9b c9bd 804b f33a 2a10 c33d 938a 753d
00000170: 40d9 7ebd 714e 6ebc 4adb a0bd ea92 53bd
00000180: 8f86 953c 98ce 673d cb2b b13d 3752 c7bd
00000190: 9f7a 8f3d 8c4a 99bd cce7 1e3d 1d8e b53d
000001a0: 1b29 9f3a 6f22 c33d bfe0 b8bd 0049 28bd
000001b0: 92fd 773d 7a84 c3bc 04a2 b8bc daa5 37bd
000001c0: 0fee 923d 37e8 4f3d 3160 063d 00bf 76bd
000001d0: 7c74 b1bd 415d 1e3c b14f f73c a861 4fbd
000001e0: 144b 00bd 321e 903d 85e4 eb3b 2287 603b
000001f0: 2ffa e0bc 00c0 c5bd dc69 cabd cb26 56bd
00000200: 2ea9 59bd 4f49 083d acaa f7bc 5ad0 25bd
00000210: 6b27 ca3d 2d55 1a3d 6372 9c3d 7fa7 58bd
00000220: 3166 2cbd ccc6 1f3d 3ee9 93bd fb36 91bd
00000230: 9460 e8bb 85de 25bd da49 a1bd 6a8e 813d
00000240: aaf5 b03d a7e1 983c 63f6 a3bc a84a cbbd
00000250: b0e8 16bd 3147 e93c 286a 523d aa21 3fbc
00000260: a476 31bd 53a8 6c3d 4865 aebd 47df 853d
00000270: 145c 2bbd 09c2 403a b6fc b2bc b914 423c
00000280: 3b1f 07bd d2d6 9a3d 40e1 c1ba e87a ac3d
00000290: 18dd d03d 8adc 4fbd 784f a1bd f550 a93d
000002a0: a08c a73d 920a a6bd ba18 17bc 15e2 d4bd
000002b0: b9b7 b0bd f4c7 a63c 64b9 e53c 5c0c b73c
000002c0: 8404 ebbc 152a c73d 30ed 763c d9c5 7ebd
000002d0: 008c c3bb 545e cf3c aa32 173d b0a4 98bd
000002e0: 5ad1 213d 8e93 5cbd c361 b3bd 19d4 6bbd
000002f0: e531 d03d 8d8b b83d c750 c13d 2272 7d3d
00000300: c715 a33d 7029 67bc 7a90 6dbd daba 573d
00000310: 8bba 5fbd 55b0 91bd dedf 09bd 5437 b53c
00000320: 4644 5e3d b4b2 27bd 021e 7ebd b8f6 683c
00000330: d37d 7ebd c98c 8cbd c60d 613d 8c0e 91bc
00000340: 2744 c53d a500 d23d 0624 013d 9e97 143d
00000350: 5cda c63c c05f d83a b038 fbbb 40e4 bd3a
00000360: 7e3a 213d 9bb7 c83d 84c9 dfbc 9d82 36bd
00000370: c81c d1bc 8a97 50bd a0d4 923c 5324 a13d
00000380: d5cf a83d f63a 463d 1ddf 9ebd c6b9 67bd
00000390: 3cb9 bdbc 8c2a 9fbc 400b 0e3c 852b c6bd
000003a0: c261 063d fbaf a4bd 8498 88bd 327a b3bd
000003b0: 5119 bc3d 736c ccbd efd9 a23d a03a 68bb
000003c0: d8d9 48bc f306 873d f89f 1fbc 8d63 873d
000003d0: 4915 9c3d 776d bbbd 0622 263d 5403 a33c
000003e0: 54aa b93c 8021 7c3c 8c32 ec3c 22b4 4fbd
000003f0: 20f5 5cbc 331c cd3d a309 913d 70c3 81bb
-0.024664905 -0.06390738 -0.0072191856 -0.052820444 -0.04365496 -0.03149522 -0.101151474 0.08581053
0.09030883 -0.016535453 -0.010342638 -0.044674575 -0.09614523 -0.10423761 0.037509274 -0.059086736
-0.06738577 -0.009894684 -0.03545178 -0.035345968 0.0020995613 -0.02331492 -0.03744119 -0.05143747
-0.08691914 0.08714348 -0.04316982 0.02693674 -0.037415717 0.007683688 0.09719762 0.047396846
-0.09190575 0.04116544 0.0991534 0.026980113 0.07013234 0.10582079 -0.016591294 0.021549974
-0.07126236 -0.019821232 0.080059335 0.055977143 -0.06478449 -0.08285738 -0.07037956 -0.102357954
-0.07966962 -0.026067436 0.07280635 0.019247146 -0.08197764 -0.082995 0.05091445 -0.07859791
-0.012978777 0.05056546 -0.048784677 -0.011493817 -0.009175293 -0.026589863 -0.053445883 -0.09444158
-0.08645665 -0.0578156 0.10075213 -0.051574253 -0.071653195 0.024698092 0.028693106 0.057522133
0.07972701 0.060500838 -0.10259105 0.008650362 0.062412314 -0.007778059 -0.060253765 0.099228986
-0.041099567 -0.060014185 -0.09503225 0.004708454 0.046710335 0.023333691 0.020844646 -0.07994106
-0.098440364 0.001856193 0.095245674 0.059946608 -0.062218904 -0.014545069 -0.07854326 -0.05165378
0.01825264 0.056593508 0.08650931 -0.09732478 0.0700581 -0.07484922 0.038795277 0.088649966
0.0012142988 0.09528052 -0.09027242 -0.041085243 0.060544558 -0.02386688 -0.022538193 -0.044835903
0.07174312 0.050758567 0.03280658 -0.060240746 -0.08664796 0.009665788 0.030189367 -0.05063024
-0.0313216 0.07037009 0.0071988725 0.0034260233 -0.027463047 -0.09655762 -0.09883472 -0.05228309
-0.053139858 0.033273038 -0.03023275 -0.040481903 0.098708 0.037678886 0.07639005 -0.05289411
-0.042089645 0.039007947 -0.07222222 -0.07090565 -0.007091591 -0.040495414 -0.07875414 0.063259915
0.08640607 0.018662287 -0.020014947 -0.09926349 -0.036843 0.02847633 0.05137077 -0.011665741
-0.043326035 0.057777714 -0.085154116 0.065367274 -0.04183586 0.0007353132 -0.021849018 0.011845761
-0.032988768 0.07560505 -0.0014791861 0.0842188 0.1019842 -0.05074743 -0.078764856 0.082673945
0.08181119 -0.08107485 -0.009222204 -0.10394684 -0.08628792 0.020359017 0.028042503 0.02234476
-0.028688677 0.097248234 0.015071198 -0.0622004 -0.005967617 0.025313534 0.03691355 -0.07453287
0.039506294 -0.053851657 -0.08758881 -0.05757532 0.101657666 0.09010992 0.09439235 0.061876424
0.07963138 -0.014109001 -0.05799911 0.05266843 -0.05462126 -0.07113711 -0.033660762 0.022121109
0.05426433 -0.04094191 -0.062040336 0.014218979 -0.062131714 -0.0686279 0.054944776 -0.017707132
0.0963214 0.10254029 0.031528495 0.036277406 0.024274044 0.0016508028 -0.00766667 0.001448758
0.039362423 0.09800645 -0.02731777 -0.044558156 -0.02552642 -0.05092577 0.017923653 0.078682564
0.08242766 0.048396073 -0.07757399 -0.05657365 -0.023159616 -0.019429468 0.008669674 -0.096762694
0.032808073 -0.08041378 -0.06669715 -0.08763541 0.09184516 -0.099816225 0.07951724 -0.0035435334
-0.012258969 0.06593122 -0.009742729 0.06610785 0.07621247 -0.09151738 0.04055979 0.019899048
0.022664227 0.015388846 0.028832696 -0.050708897 -0.013486177 0.10015144 0.07081916 -0.0039600655

conv_block_1.2.bias f4 [10]
00000000: 1cf2 023c 1819 aa3c 2046 bcbd f2e6 adbd
00000010: c3bb 723c 2187 21bd a437 acba 2ca8 c3bc
00000020: c378 713c f687 903d
0.007992294 0.020763919 -0.09193063 -0.08491315 0.014815274 -0.03943551 -0.0013139141 -0.023883902
0.0147382645 0.070571825

conv_block_2.0.weight f4 [10, 10, 3, 3]
00000000: b3b3 16bd 993d aa3d 3689 ae3d 86c2 a9bd
00000010: 6938 aabd b7b3 b2bd 961c 6bbd 2582 26bd
00000020: f6ae 21bc b6da c2bc 0f30 5bbd 4fef 0abd
00000030: 544d 14bd 8d92 d73d 946b 21bd bdb8 96bd
00000040: d0b3 3a3d 668c d8bb bf44 a53d 41e3 863d
00000050: 5f55 c63d b619 9ebd b9c7 8a3d 5f2c b53d
00000060: 0237 55bd 4d6e c63d e1d4 a13d c04d 973a
00000070: 222c 503d 88f3 16bd 1249 bcbd 5c47 da3c
00000080: aab7 003d d016 8dbd d266 513d 7468 b8bd
00000090: fee1 bd3d d51e d53d 9b34 fa3c 1c5b 83bd
000000a0: cb38 5a3d d48c a33c 89ce fa3c 17a4 153d
000000b0: 2375 a83d 7711 3cbd 43db b1bc 00c2 e33c
000000c0: 811c 523c 1f5c b13d 1a92 68bd 755e 20bb
000000d0: e9b4 aa3c 4e91 f5bc 3443 973d cd3c 5d3c
000000e0: c0de c3bd de60 1abc 37a1 3bbd 4278 473c
000000f0: 16a2 29bc 4f6f d2bd ca57 8dbc 4479 35bc
00000100: 21db 04bd 1c4f c33d 2833 c3bc dc11 883d
00000110: 52f5 ca3c 12e7 b8bd 98f8 be3c e303 b03d
00000120: 9eca 89bd 6c1f 88bd ade6 cf3d 9ae0 b03d
00000130: 6d0a 6abd f251 853d 419d 41bc 7e6d d1bd
00000140: 7d13 1d3c 8ce5 123d 81aa 02bd a898 143d
00000150: 48d1 b4bd 8e07 953d 053c b73d 1c94 753d
00000160: a26a 903c 556c 0c3d bb32 9cbd 25ce cabc
00000170: 2e90 09bc 4ce5 76bd 7c0b 9cbd ad9e 943d
00000180: 642e 903d e4a6 c0bd d333 103d a3cc 283d
00000190: 5ea8 c93d acf4 723d 700b c33d 3431 14bd
000001a0: 42c7 933d f12c ac3d 9847 cfbd deb4 b0bd
000001b0: 9cc7 ae3c 5ac1 6b3d 8f80 56bd 8034 3e3c
000001c0: 0076 20b9 cc8f da3c 0b01 68bd 0287 733d
000001d0: 9d8f 8f3d f2c9 95bd 00d8 853a 0056 9939
000001e0: cea4 0a3d d71b c93d 943c fd3c 8435 c4bc
000001f0: 25e3 c13d 264c 24bd 3ef2 03bd 511e b53b
00000200: fbcd a7bd 553e 573c 37e3 95bd 8438 163c
00000210: 361e 0a3c 07b3 533c cc77 b9bd f0ad c9bd
00000220: 3348 4d3d b5be b53d 52f9 c2bd b016 193d
00000230: 3b31 a2bd 1ee9 a13b 4772 c53d 4f5d a03d
00000240: a541 a1bd c21d 823d 9eac 5a3d 330c f0ba
00000250: 08b5 cd3d 2c52 32bd 62a1 d6bc 250e 61bd
00000260: 6229 5d3c 85f7 d63c 8d81 dc3b e8c2 79bd
00000270: bb33 49bd 5406 0c3d c8b4 c0bd 6728 94bc
00000280: 3636 83bb 02c5 35bd abef 233d 3a8c 0a3c
00000290: c229 943d db89 34bc e39c 8bbd 7387 983d
000002a0: 4e34 863c 3125 02bd f43f 91bd 9db7 bc3c
000002b0: 7d50 d1bd f7bf d53c afa3 4e3d dac9 c0bd
000002c0: dcbf 90bd d89e 9ebd e506 b23d 3c1a b43d
000002d0: 651d 993b 20f1 c63d ad82 0bbd c4aa d5bd
000002e0: a983 183d 7560 1e3d 14ef cf3d f721 503a
000002f0: 7526 a93d efaf 853d d1a7 9d3d 4dd4 d4bd
00000300: 4bf6 b23d 79fa b6bd 31c9 c23d 5c82 6fbb
00000310: 0318 bebd 66a3 f43c e4c3 afbc 7ce6 c1bd
00000320: 3687 1cbd b810 323c cf22 a83d 16bc 04bd
00000330: 8539 803d d845 583c 80db 683b 943a a53c
00000340: 90ac 8dbd 0370 b3bd b0a9 07bd bc2a c9bd
00000350: 8c59 49bd 10e8 9e3b ea2d 8ebd 3e17 33bd
00000360: 074e 92bc c49d 67bc 75f5 75bd dad7 c73b
00000370: d1e1 88bc a609 e83c 4327 c73b 0925 51bd
00000380: 949b 0ebd de5c 52bb 1469 83bd 3781 da3b
00000390: 1787 b8bb 4ed4 223d 9160 da3c d29c a53d
000003a0: b8cb 9cbb 2462 9cbd 9177 483d 33dd 8dbd
000003b0: f49f 4cbc bb8b 04bd deda 1bbd a89e 17bd
000003c0: b1e3 c43d 2012 743d 7348 fe3c 300a cc3d
000003d0: 4e45 c2bd b1aa 8f3c 1246 8b3d 527e 903d
000003e0: a0c3 aabd 8391 1b3d c75a 74bd a337 73bb
000003f0: a684 a6bc f5d4 b0bd 1c58 d1bd 609b 8abd
-0.03679247 0.0831253 0.08522265 -0.082890555 -0.08311541 -0.08725684 -0.05740031 -0.04065146
-0.009868374 -0.02378593 -0.05351263 -0.03391963 -0.03620656 0.10525999 -0.039409235 -0.07359455
0.04558164 -0.0066085337 0.08069753 0.06586314 0.09684252 -0.07719748 0.06776375 0.08846354
-0.052054413 0.09689007 0.079019316 0.0011543557 0.05082334 -0.036853343 -0.091936246 0.026645355
0.031425156 -0.06889117 0.051123448 -0.09004298 0.0927162 0.10406271 0.030542662 -0.06413862
0.05327682 0.019964613 0.030616062 0.03653344 0.08225467 -0.045915093 -0.021710997 0.027802467
0.012824179 0.08660149 -0.05677996 -0.0024470363 0.020838218 -0.029976513 0.07385865 0.013503266
-0.095639706 -0.009422509 -0.045808043 0.012174668 -0.010353586 -0.10275137 -0.017253775 -0.011076275
-0.03243554 0.09536573 -0.023828104 0.066440314 0.024775181 -0.09028448 0.023311898 0.08594491
-0.06728099 -0.06646618 0.1015142 0.08636589 -0.05713885 0.065097705 -0.011817277 -0.10225962
0.009587166 0.035863444 -0.031900886 0.036278397 -0.0882898 0.072768316 0.08946995 0.0599557
0.017628971 0.034283 -0.076268636 -0.0247565 -0.0083961915 -0.06027727 -0.07619378 0.072568275
0.07040098 -0.09406832 0.035205673 0.04121078 0.098465666 0.05931537 0.09523666 -0.036179736
0.0721574 0.084070094 -0.10121077 -0.08628248 0.021335416 0.05755744 -0.052368697 0.011609197
-0.00015302747 0.026679896 -0.05664162 0.059454925 0.07009814 -0.07313909 0.0010211468 0.0002924651
0.033848576 0.09819763 0.030912675 -0.0239513 0.094671525 -0.040111683 -0.032213442 0.0055272956
-0.081935845 0.01313742 -0.073187284 0.009168748 0.008430054 0.012921101 -0.090560526 -0.09847629
0.050117683 0.08874265 -0.0952021 0.037375152 -0.07919546 0.00494112 0.09640937 0.07830297
-0.07873849 0.06353332 0.053387277 -0.0018314183 0.100442946 -0.043535396 -0.0262 -0.05494513
0.013498636 0.026241073 0.006729311 -0.060976893 -0.0491216 0.034185722 -0.09409481 -0.018085672
-0.004004265 -0.044377334 0.040023487 0.008456284 0.07234527 -0.011019195 -0.06817033 0.0744771
0.016382363 -0.03177375 -0.07092276 0.023036772 -0.1022043 0.026092513 0.05044907 -0.094135
-0.07067844 -0.07745141 0.08692721 0.08794066 0.0046726936 0.0971396 -0.03406017 -0.104329616
0.037234936 0.038666207 0.101530224 0.00079396315 0.08259288 0.06527697 0.07698024 -0.10392056
0.08738383 -0.089344926 0.095110305 -0.0036546206 -0.092819236 0.02986307 -0.021455713 -0.094677895
-0.038214885 0.010868244 0.08209764 -0.032405935 0.06260971 0.013200246 0.0035531223 0.020169534
-0.06917679 -0.08761599 -0.03312081 -0.09822604 -0.049157664 0.0048494413 -0.06942351 -0.043723337
-0.017859472 -0.014136735 -0.06004854 0.0060987296 -0.01670924 0.028324913 0.0060776784 -0.05106071
-0.03481634 -0.003209881 -0.064165264 0.0066682356 -0.0056313383 0.03975325 0.026657375 0.08086552
-0.0047850274 -0.07635906 0.048942152 -0.06926956 -0.012489308 -0.03235982 -0.038050525 -0.03701654
0.09613741 0.059587598 0.031040406 0.099628806 -0.09485875 0.017537447 0.06800474 0.07055344
-0.08338094 0.037980568 -0.059656885 -0.003711202 -0.020326924 -0.08634368 -0.10221884 -0.06767917

conv_block_2.0.bias f4 [10]
00000000: 23bc 123d 20e6 8cbc a793 f43c ed78 a33d
00000010: 4cd0 5abd 0084 51bd 4dc1 503d 82a2 873b
00000020: c012 3ebc f49f bdbd
0.035823952 -0.017199576 0.029855562 0.07982049 -0.053421304 -0.051151276 0.050965596 0.0041392455
-0.01160115 -0.09259024

conv_block_2.2.weight f4 [10, 10, 3, 3]
00000000: 2bdd b33d 3d8a b3bb 75b8 abbc e557 37bd
00000010: db02 b7bc 6a81 4b3d 7ff0 81bb 5369 b53d
00000020: c9fb f8bb 536e 5cbc 1ade 6c3d 2979 8cba
00000030: 5bb1 9ebc 7678 093d 78d5 a63d db26 e53c
00000040: fce6 923d c54f 8f3d 33eb e73c 8708 103d
00000050: 1567 053d 3ea9 1a3c 60a9 b43d 054c c43d
00000060: 0a8f 133d 0ed5 ddbb 1a64 be3d 1719 abbd
00000070: 1490 9b3d 1d93 5e3d 378d 873d a116 1dbc
00000080: 6e20 a4bd b9ee 963d baf9 42bd 7ec1 d63c
00000090: 069c 743d 61be c9bd 7039 e53b 0a5f 19bd
000000a0: 7d38 993d 3073 89bd 1f13 833d 799d 863d
000000b0: d634 6e3d e53e cf3d acc7 823c fbaa c3bd
000000c0: 9b1b 9a3d 881a 1e3c 6017 093b aaa4 cdbd
000000d0: 7014 c2bc 848f 51bd 672e d03d 086f 963d
000000e0: 86e2 9d3d 7299 903d 5f03 89bd 2cca 3fbd
000000f0: bf60 2fbd 215e 33bd 850b a53d c8b7 0d3d
00000100: ab2c af3d 3760 cfbb 4883 c3bd 5c81 f0bc
00000110: 6a3f 953d a1f7 7e3d 17a2 fe3c c8c4 03bd
00000120: 937e c9bd 84fe 67bd fa1b 613d fa26 2ebd
00000130: 9686 4e3d 44c6 eb3c 06d5 25bd 997c 833d
00000140: c4bc 0abd 6081 65bb 2c76 24bd a0c6 ccbd
00000150: 303b 8b3c 5487 f93c 9b61 59bd 056e 843d
00000160: 9aa7 c1bd fc19 d0bd 2a74 84bd 1658 13bd
00000170: 7641 39bc 05aa a3bc dcc3 463d ca8f bcbd
00000180: f766 823c 2fd2 123b f9b8 e73c e730 d33d
00000190: c471 813d 8fe5 75bd dc51 b4bd 7aba debc
000001a0: 886a 5fbd f2a0 1d3d 9439 38ba bf37 aa3d
000001b0: 312f 2b3d 6dc3 9bbc 227b 833b 600d d23c
000001c0: dca8 4fbc d4f7 ae3d a903 a8bd 1b08 543d
000001d0: abce 88bd 9851 bcbd 6a13 aebc 2df7 533d
000001e0: 9f4f 993d e2ed db3c 92af 0ebc 0280 b5bb
000001f0: 4375 2dbd 385f 14bc 70a7 eebb 49b4 b73d
00000200: d2ae 7c3d 39c0 acbd 009d e439 b8c7 84bd
00000210: 2413 89bc b592 abbd cc7a e03c 3eaa 9bbd
00000220: 951e d53d 1f08 a33d 069a 94bd d33d cbbd
00000230: e0c4 863b 100d f1bc a47f fd3c 8721 92bd
00000240: a245 323d c4a6 b9bd 6f4a 62bd 8a62 61bd
00000250: f997 523d 3277 1bbb 73bb cebd 68e4 74bd
00000260: 4a36 46bd debe c4bd 9ca9 793c 4f56 1f3d
00000270: 33cc 90bc efdf 24bd 54b8 733a 9424 a8bd
00000280: 27e3 7fbd 123a 35ba 01c8 bf3d c8c4 04bd
00000290: 0e01 563d faea 29bd 7cdd e5bc 0781 cdbd
000002a0: 11da b23d df34 d23d c017 11bb 9729 893d
000002b0: 6393 b03d 0276 563d e25c 5e3d 9483 cdbd
000002c0: b8da cabd f8b1 a5bd 120c 073d c5ba babd
000002d0: c5ef a7bd b977 57bd 8a13 cabd 3e62 b4ba
000002e0: 8948 603c 5d7f 81bd ee49 8a3d 43fe 29bd
000002f0: 527d ffbc 5f10 a13d 25f1 b53d d6d2 2abc
00000300: 7f63 9ebd 370a 52bd cb3d 773c af45 763d
00000310: 6e35 503d 92d3 37bd 7037 cfbd f81a c0bd
00000320: 96ab 0fbd d0fa 7cb9 6b22 48bd e0c6 adbd
00000330: 9b65 1c3c ef80 aebd 28ea a8bd 67a6 b2bd
00000340: 05ac f6bc 7382 bb3d 3372 223d c810 66bc
00000350: 7b15 a53c 4c97 253d 0db7 70ba bb46 b1bd
00000360: 5801 85bd 4da8 92bd a069 2fbb 809d c5bd
00000370: 3c01 9dbc 96e1 1dbd 3bdb d33d 9178 af3d
00000380: 8ac9 7a3d 00b6 c13b 7cca 0bbd ac41 dc3c
00000390: 1828 95bd 5325 38bd 9477 adbc e8e2 cabc
000003a0: 7a80 ccbd f2a2 2b3d 7e99 ae3d c469 74bd
000003b0: f523 dc3c 978d 61bc c0b1 b0bb a8fd 963b
000003c0: 9df0 b73d a922 4e3c 8dba 8bbd 1525 22bd
000003d0: c315 4c3d 5390 0d3d 60cd c739 fd46 7fbc
000003e0: b6cd 2ebd 686d 12bd 1e95 6abd e715 9b3c
000003f0: bc82 f23c c14e a53d 4014 c3bc 7045 f73b
0.08782419 -0.005479126 -0.02096198 -0.044761557 -0.022340229 0.049683966 -0.003965437 0.088579796
-0.0075983745 -0.013454038 0.057829 -0.0010717261 -0.019371679 0.033562146 0.08146185 0.02797263
0.07172963 0.06997637 0.028310394 0.035164382 0.03256901 0.009439765 0.08821368 0.09584812
0.036025085 -0.006769783 0.092964366 -0.08354395 0.0759584 0.054339517 0.066187315 -0.009587915
-0.08013998 0.073697515 -0.04760144 0.026215311 0.059719108 -0.09850765 0.0069953725 -0.037444152
0.074814774 -0.067114234 0.064001314 0.06573004 0.058155857 0.10119418 0.015964352 -0.09554096
0.075247966 0.00964988 0.0020918474 -0.10041173 -0.023691386 -0.051162258 0.101651005 0.07345396
0.077092215 0.07060517 -0.06690096 -0.046823665 -0.042816874 -0.04379094 0.08058838 0.034599096
0.085534416 -0.0063286084 -0.09546524 -0.029358558 0.07287486 0.062247876 0.03108315 -0.032170087
-0.09838595 -0.05663921 0.05495832 -0.04251764 0.05042132 0.028781064 -0.040486358 0.064202495
-0.033871427 -0.003501974 -0.04015176 -0.09998822 0.016995996 0.030460037 -0.0530716 0.06466297
-0.094557956 -0.10161206 -0.06467469 -0.035972677 -0.011307111 -0.019978533 0.04852663 -0.09207113
0.015918238 0.0022403111 0.028286444 0.10312062 0.06320527 -0.060033377 -0.08804676 -0.027188528
-0.054544955 0.038483568 -0.0007027623 0.08311414 0.041793052 -0.019014085 0.0040124813 0.025641143
-0.012674537 0.08543363 -0.08203823 0.051765542 -0.06680044 -0.0919525 -0.021249492 0.051749397
0.0748589 0.02684683 -0.008708851 -0.0055389414 -0.042348158 -0.009055905 -0.0072831437 0.089699335
0.06169016 -0.08435101 0.00043604523 -0.06483406 -0.01673276 -0.083775915 0.027402304 -0.076008305
0.10406224 0.07960533 -0.0725594 -0.099239014 0.004112825 -0.029425174 0.030944653 -0.07135301
0.04352344 -0.09065011 -0.055246767 -0.055025615 0.051414464 -0.002372217 -0.10094347 -0.059788138
-0.048391618 -0.096067175 0.015238192 0.03890067 -0.017675495 -0.040252622 0.00092971814 -0.08210102
-0.06247249 -0.0006913255 0.093643196 -0.032414228 0.0522471 -0.041483857 -0.028059714 -0.10034376
0.08732999 0.102639906 -0.00221394 0.06697386 0.08621862 0.052358635 0.0542878 -0.10034862
-0.099049985 -0.080905855 0.032970496 -0.09117655 -0.08200029 -0.05260441 -0.09867008 -0.0013762189
0.013689169 -0.06323121 0.06752382 -0.04150225 -0.031187687 0.07864451 0.08883885 -0.010426244
-0.07733821 -0.051279273 0.015090416 0.06012505 0.050832205 -0.044879504 -0.10117996 -0.09380144
-0.035075746 -0.00024126028 -0.04886095 -0.08485198 0.009545709 -0.08520686 -0.08247787 -0.08723145
-0.030111322 0.091557406 0.03965969 -0.014042087 0.020151844 0.04042749 -0.000918255 -0.08656069
-0.06494397 -0.07161007 -0.0026765838 -0.09649181 -0.019165628 -0.038545214 0.10344549 0.08567918
0.06122736 0.0059115887 -0.03412865 0.026886784 -0.07283038 -0.04495747 -0.021175183 -0.0247664
-0.099854425 0.041903444 0.0852537 -0.05967118 0.026872614 -0.013766668 -0.005392283 0.004607875
0.0898144 0.012581506 -0.06822691 -0.039586145 0.04982544 0.034561466 0.00038109254 -0.01558089
-0.04267665 -0.03574887 -0.057271115 0.018931342 0.029603355 0.08071662 -0.023813367 0.0075461194

conv_block_2.2.bias f4 [10]
00000000: d811 a33d 3a88 a23d 990f 0d3d c1a4 c4bd
00000010: 9e47 533c aad4 17bd e4bd f2bc 262c a83d
00000020: d291 19bd 0b9b 9abd
0.07962388 0.079361394 0.034438703 -0.09601737 0.012895493 -0.037068047 -0.029631563 0.08211546
-0.03749258 -0.07549103

classifier.1.weight f4 [47, 1690]
00000000: e5be 95bc c4ef 873c d20b 1d3b 76cb ce3c
00000010: 1446 cb3b ad60 afbc 1dad ee3b a398 c03c
00000020: 9db8 853c 3cc4 0b3c 2697 8bbc b7ef 5abc
00000030: 6527 913c d60e 76bc 2c56 de3b 4132 f8ba
00000040: 4e75 193c 73d7 383b 3f78 8dbc 731b 0abc
00000050: 5012 b83c 8b54 863b a944 5e3c 90cf 34bc
00000060: cfc2 a73c 7a5a 83bb c4d4 e3bb cb18 ca3b
00000070: 128b f5bb 7c3d 0cbc 22d1 13bb b27c 08b9
00000080: 50ea 4dbc bfce 1c3c 48fe b6bc 3368 843c
00000090: 96f2 c23c 15f3 a83b ee10 93bb b14b acbc
000000a0: bd5d 4f3c 0c49 ad3c 9d53 b43c cc78 5e3b
000000b0: eb0f 193c da50 c93c d50f a03b 5319 2cbc
000000c0: 8a1b b3bc f07b 423c b344 2f3c 16e2 ba3c
000000d0: 6869 36bc 8e6f 3f3c b3b1 dfbb 2e51 9ebb
000000e0: 169e 7c3c a45f acbc c63b 9d3c 5eec 4d3c
000000f0: f08e 58bc a198 5f3c ff00 a0bb 0091 5f3b
00000100: 5016 aebb ece6 b8bc a7e2 a7ba 9f7c 563c
00000110: c5f3 d3ba e42e 30bc bcda 043b 13d9 ba3b
00000120: 3570 b5bb fc61 90bc 7a73 41bc 36a7 32bb
00000130: 5391 233c e401 bb3c 6175 de3a 2fea 223c
00000140: 9e60 793c 3be4 19bc a062 e0bb 6675 8e3c
00000150: 0403 993c d0e2 e53b 5edd 8fbc 5d6c 763c
00000160: ea89 9abc 1846 5b3c 75ab 853b f729 153c
00000170: 381f b8bc 4c33 f0bb bb3c 3d3c 8a6e a33c
00000180: ff03 bbbb 020f bc3c d5cd 88bb d012 5cbc
00000190: cf64 18bc 8e78 343b 76fd 4abb 0993 543c
000001a0: 3f17 48bc 4047 babb b374 bbbc 509c ac3c
000001b0: b25f 5bbb dbc6 92bc 1c81 be38 6d6e 9e3a
000001c0: 3703 033c 9ffb bbba b381 873c ccbe eabb
000001d0: c318 c7bb 2064 94bb 52d4 b63b 16b0 a93c
000001e0: 2ab1 ca38 535f a33c 53df a63c d1c2 3abc
000001f0: e645 5bba 66d1 27bc 5008 3a3c a890 efbb
00000200: 2daf 0d3c e940 2e3b e525 71bc 5cb0 77bc
00000210: 129a b8bc 3005 4bbc 5469 033c a085 333b
00000220: df40 a03c 65f2 a4bc 1a95 0a3a 228f a8bc
00000230: 588a b53a 7e58 253c 47e9 a8bc 143b ba3c
00000240: 5209 cfbb 1397 ba3c 0bc9 3bbb 1c30 763c
00000250: bd72 bf3c 0bc2 f8bb 1999 98bb 685f 653c
00000260: 387c a0bc 1f21 803c 0f2d 66bc b8ef c23c
00000270: 48b4 70bc 55b3 0fbc c9bc 9e3c 3d8e 19bc
00000280: d7df b43c 2368 933c 3e7f c03c 55df b6bc
00000290: 83ca c63a 699e ddbb 1493 e63b 8f63 8cbc
000002a0: 0a28 373c 00db 7ab6 574a 29bc 07c5 a9bc
000002b0: 25ba 633c 7ef0 fabb 11ea 9b3c d931 b13b
000002c0: 1e6e 0c3c e0f9 23bb a909 14bb 6beb e8bb
000002d0: 0772 a2bc 5d6c 873c 66ef 67bc a49c 7b3c
000002e0: 84ca e6bb 1a6f 863c d136 b43c be03 62bc
000002f0: ab34 ad3c 1376 e73a 5278 8ebc 3637 353c
00000300: 189f 743c 56bb b93c 858f b3bc 9056 bd3c
00000310: 51d1 a03c 20a2 cd3c 5865 6c3c 08fb 2ebc
00000320: 4813 a03c 3fd8 be3c 3f7d 05bc 7840 37bb
00000330: 7837 a53c 900a aa3c b1ad 8d3c 0bc3 a23c
00000340: c226 3abc c67b 45bb 62d0 0bbc 1a85 623c
00000350: 830f ec3b c011 91bc 0df4 01bb 9602 99bc
00000360: 70f1 b1bc b7e2 be3c 0c3c 35bc f741 463c
00000370: 6b14 89bb f281 77bb 73dc 973a 0b0a a53c
00000380: 3e2a 0ebb 885a ae3c a6f4 7a3c e86c 913c
00000390: 5435 abbc f918 27bc 474a 99bc fef3 82bb
000003a0: 70d7 78bb 1cbb ca3b cef3 bb3c ae45 463c
000003b0: 3022 81bc c2a2 66bc 2003 a03c 6a50 663b
000003c0: 17f0 013c b38a 3dbc 6353 eaba f3c0 033c
000003d0: 7998 72bc 7f36 8c3c 02fa 5a3c 87b5 55bc
000003e0: 5812 10bc 8d1a 95bb dd5c a23b 1bc4 febb
000003f0: 20b7 c73c e32e b7bc 7d56 4ebc 09d1 5ebc
-0.018279502 0.016593821 0.0023963344 0.025243502 0.0062034223 -0.021408403 0.0072838203 0.023510283
0.016323382 0.008530673 -0.017039847 -0.013362817 0.01771898 -0.015018186 0.006785175 -0.0018935875
0.0093663465 0.002820459 -0.017269252 -0.008429396 0.02246967 0.004099434 0.013566175 -0.011035815
0.020478634 -0.0040085884 -0.006952854 0.0061675063 -0.007493385 -0.008559581 -0.0022555073 -0.00013016423
-0.0125680715 0.0095707765 -0.022338048 0.016162967 0.023797315 0.0051559308 -0.004488102 -0.021032186
0.012656626 0.021152996 0.022012526 0.0033946512 0.009342174 0.024574686 0.0048847 -0.010504085
-0.021863718 0.011870369 0.0106975315 0.022812884 -0.011133529 0.011684312 -0.0068266033 -0.0048314547
0.01541855 -0.021041699 0.019193541 0.012568561 -0.013217673 0.013647229 -0.0048829312 0.0034113526
-0.0053127185 -0.02257105 -0.0012808637 0.013091235 -0.0016170671 -0.010753367 0.0020271977 0.005702147
-0.0055370578 -0.017624848 -0.011807317 -0.002726031 0.009983378 0.02282805 0.0016972237 0.009943529
0.015220789 -0.009392793 -0.0068476945 0.017389964 0.018678196 0.0070155635 -0.01756161 0.015040484
-0.01886459 0.013383411 0.004079277 0.0091042435 -0.022475824 -0.007330334 0.011550124 0.01995017
-0.0057072635 0.022956375 -0.0041749277 -0.01343222 -0.009301378 0.0027537677 -0.0030973828 0.012974509
-0.012212574 -0.005684763 -0.022882795 0.02107063 -0.0033473787 -0.017917087 9.0839545e-05 0.0012087353
0.007996372 -0.0014341957 0.016541338 -0.007163858 -0.00607595 -0.0045285374 0.00557951 0.020713847
9.66511e-05 0.019942915 0.020370161 -0.011398987 -0.00083646027 -0.010242796 0.011354521 -0.0073109455
0.008647722 0.0026588982 -0.014718507 -0.015117731 -0.022534404 -0.0123913735 0.008020718 0.002739288
0.019562183 -0.020135114 0.00052865 -0.020576064 0.0013850434 0.010091899 -0.020619048 0.022733249
-0.0063182497 0.022777116 -0.0028653766 0.015026119 0.023370141 -0.007591491 -0.0046569225 0.013999797
-0.019590482 0.015640793 -0.014048829 0.023795947 -0.01469142 -0.008770783 0.01937713 -0.009372291
0.022079391 0.017993992 0.023498174 -0.02232329 0.0015166554 -0.0067632687 0.007036576 -0.017137317
0.01117898 -3.7380378e-06 -0.010332665 -0.020723833 0.013899361 -0.0076580634 0.01903251 0.0054075536
0.008571176 -0.0025020763 -0.0022588766 -0.007108142 -0.019829763 0.016531164 -0.014156198 0.01535717
-0.0070431847 0.0164104 0.021998795 -0.0137948375 0.021143278 0.001765909 -0.017391358 0.011060527
0.014930509 0.022672337 -0.021919021 0.023112565 0.01963106 0.025101721 0.014428459 -0.010679968
0.019540444 0.023296474 -0.008147537 -0.002796201 0.020168051 0.02075699 0.017294737 0.019868394
-0.01136178 -0.003013359 -0.008533569 0.013825679 0.0072039976 -0.01770866 -0.0019829303 -0.01867799
-0.021721572 0.023301465 -0.01106168 0.012100688 -0.004183342 -0.0037766662 0.0011586085 0.02014639
-0.0021692659 0.021283403 0.015317118 0.017752126 -0.020899452 -0.010198825 -0.018712176 -0.0039963713
-0.0037970208 0.006186856 0.022943404 0.012101574 -0.015763372 -0.01407689 0.01953274 0.0035143145
0.007930777 -0.011568713 -0.0017877634 0.008041608 -0.01480686 0.01711583 0.013365271 -0.013043768
-0.008793436 -0.0045502842 0.004954918 -0.0077748424 0.024379313 -0.022361225 -0.012593863 -0.013599643

classifier.1.bias f4 [47]
00000000: ac85 ca3c 8933 b53c 175a a23c dc7a 27bc
00000010: d4ac 3abc 70d3 27bb 970a 913b 7873 8b3b
00000020: ef79 c3bc bef4 d1bb be0b ac3c f233 aa3b
00000030: 444e 5bbc dcbd 52bc 9c71 24bc a081 8e3c
00000040: 6488 6f3c 787a 20bc f731 dfbb d5bb b2bc
00000050: 16bd 983c 6d4f 26bc b216 863a 1524 0b3c
00000060: e7cc bc3c 9d6b 8bbc 8b1c 9bba 890a 7dbc
00000070: 7f2d 1f3b 3cb8 73bc 9939 213c f6d9 543b
00000080: 0805 793c 4522 96bc 30ed 8a3c a8e4 9ebc
00000090: 3c66 57bc 8356 b6bc 49cf 61bc f48a 983c
000000a0: facf 9bbc 96a5 873c 426b c33c 34fe 2bbc
000000b0: e463 0a3c 9e36 55bc 1791 5b3c
0.024721943 0.0221193 0.019818349 -0.010222163 -0.0113937445 -0.0025608204 0.0044263112 0.0042557083
-0.023861853 -0.0064073494 0.021001693 0.0051941806 -0.013385359 -0.012862649 -0.010036852 0.017395794
0.01461992 -0.009794824 -0.006811376 -0.02181808 0.01864485 -0.0101507725 0.0010230152 0.008492489
0.023046924 -0.017019087 -0.0011834068 -0.015444406 0.0024288592 -0.014875468 0.0098403925 0.0032478548
0.015198953 -0.018326888 0.016958803 -0.019396141 -0.013146933 -0.022258049 -0.013782331 0.018620946
-0.01902007 0.01655845 0.023854855 -0.0104976185 0.008446667 -0.01301351 0.013401291
